Camera_Fall_Detection_Files/trained.tflite (tflite, 56616 bytes, 21 tensors)

model_1/logits/Conv2D i1 [3, 1, 1, 32]
00000000: 3f3c 7bbc b204 f217 ee21 1ced dea3 4f0e
00000010: cd4c 4470 eef4 1597 967f c50a 4a13 ebf1
00000020: 3adb b90e f67f eef6 7ad3 fbb0 be6b 2acc
00000030: 5bd1 dca0 8915 724c 11fe 03f4 b8cc fee7
00000040: da4f af4b 57d3 e074 5e2d 7ff4 9eaa 5678
00000050: aacc fe8b 4874 cea5 57bb ed89 0bb3 58ec
63 60 123 -68 -78 4 -14 23
-18 33 28 -19 -34 -93 79 14
-51 76 68 112 -18 -12 21 -105
-106 127 -59 10 74 19 -21 -15
58 -37 -71 14 -10 127 -18 -10
122 -45 -5 -80 -66 107 42 -52
91 -47 -36 -96 -119 21 114 76
17 -2 3 -12 -72 -52 -2 -25
-38 79 -81 75 87 -45 -32 116
94 45 127 -12 -98 -86 86 120
-86 -52 -2 -117 72 116 -50 -91
87 -69 -19 -119 11 -77 88 -20

model_1/head/Conv2D i1 [32, 1, 1, 96]
00000000: d7c7 62fc 66f9 a996 39a2 9401 30fc df38
00000010: cfe3 b4d8 b69a 0772 930d 4ec9 7300 edb3
00000020: 5bc2 a939 97b6 a419 51ac 9867 3a8f 72f2
00000030: 17cd cc6b b4d0 ac6c 1d48 7f96 9d5b cc32
00000040: 0512 4853 405b 5a8a 65a6 3051 9c10 c315
00000050: 3a04 54f8 c8d8 aa6a 1e76 f191 094a 200d
00000060: c721 c1fe e052 2807 4b90 996b 49e7 1d2e
00000070: 6bd9 1f77 d3fc 201e 2317 db6f 0afb 53c0
00000080: 3855 f819 343e f6c1 c40c e79c e41d dec9
00000090: eaa9 6f2a 0440 b7d8 0b4b 3743 ce76 c4ad
000000a0: b41f 4d27 6117 fe12 815e ce31 3fcf da3f
000000b0: b34c d681 1b75 afbb 4f3e 6816 5460 0af4
000000c0: 302e c561 e2c2 5d6c 9170 da76 52f4 5986
000000d0: c5e0 1f34 98f0 7a19 e051 6c0c b54f 5561
000000e0: b0ea 9b96 ad62 77df 81ab 0d09 a47e e0ac
000000f0: 6721 66a1 cc40 1a0e b35c bc04 ef46 dc49
-41 -57 98 -4 102 -7 -87 -106
57 -94 -108 1 48 -4 -33 56
-49 -29 -76 -40 -74 -102 7 114
-109 13 78 -55 115 0 -19 -77
91 -62 -87 57 -105 -74 -92 25
81 -84 -104 103 58 -113 114 -14
23 -51 -52 107 -76 -48 -84 108
29 72 127 -106 -99 91 -52 50
5 18 72 83 64 91 90 -118
101 -90 48 81 -100 16 -61 21
58 4 84 -8 -56 -40 -86 106
30 118 -15 -111 9 74 32 13
-57 33 -63 -2 -32 82 40 7
75 -112 -103 107 73 -25 29 46
107 -39 31 119 -45 -4 32 30
35 23 -37 111 10 -5 83 -64
56 85 -8 25 52 62 -10 -63
-60 12 -25 -100 -28 29 -34 -55
-22 -87 111 42 4 64 -73 -40
11 75 55 67 -50 118 -60 -83
-76 31 77 39 97 23 -2 18
-127 94 -50 49 63 -49 -38 63
-77 76 -42 -127 27 117 -81 -69
79 62 104 22 84 96 10 -12
48 46 -59 97 -30 -62 93 108
-111 112 -38 118 82 -12 89 -122
-59 -32 31 52 -104 -16 122 25
-32 81 108 12 -75 79 85 97
-80 -22 -101 -106 -83 98 119 -33
-127 -85 13 9 -92 126 -32 -84
103 33 102 -95 -52 64 26 14
-77 92 -68 4 -17 70 -36 73

model_1/block_6_expand/Conv2D i1 [96, 1, 1, 16]
00000000: dc45 0881 d3ea f0c9 e50f 0849 09d6 0729
00000010: dd12 c2fc e8dc 13ac 3e2a c419 f604 2081
00000020: 0b03 e22d 2d22 d8cf 7fea 0106 ff5b c30e
00000030: 2ed1 fa99 0de3 fc05 74ff 5820 021f 0d7f
00000040: a52b 0b21 03f6 0b34 fc0d 22e1 81f6 0731
00000050: 0144 7f09 1861 a94c d044 ecf0 1dde 8212
00000060: 1cb9 6d81 24fc d255 b092 24f5 f452 e43d
00000070: 1b73 e3cd 570e 05db 7f5b ec19 22e4 3527
00000080: 08a6 15aa 16d0 14b6 1035 38f5 077f 582f
00000090: 07e7 fa7f 2cf7 27c2 c06e 21ef f5c1 f7f6
000000a0: f31a d981 030a 012d 17e8 1cdb fbd9 0b1b
000000b0: f70b 21e6 48e1 51be a11b 0322 f57f c1e3
000000c0: 46e9 a2ed 35ac 0505 092d b0dc d27f 0326
000000d0: ee07 e80a 0681 0010 04f1 0c02 06f3 0a0a
000000e0: 20fa 4eed 4208 81b1 fbe1 2611 13bd e7dc
000000f0: 9f29 f5c3 0e0d 7f31 d52a 5fd5 0160 4305
-36 69 8 -127 -45 -22 -16 -55
-27 15 8 73 9 -42 7 41
-35 18 -62 -4 -24 -36 19 -84
62 42 -60 25 -10 4 32 -127
11 3 -30 45 45 34 -40 -49
127 -22 1 6 -1 91 -61 14
46 -47 -6 -103 13 -29 -4 5
116 -1 88 32 2 31 13 127
-91 43 11 33 3 -10 11 52
-4 13 34 -31 -127 -10 7 49
1 68 127 9 24 97 -87 76
-48 68 -20 -16 29 -34 -126 18
28 -71 109 -127 36 -4 -46 85
-80 -110 36 -11 -12 82 -28 61
27 115 -29 -51 87 14 5 -37
127 91 -20 25 34 -28 53 39
8 -90 21 -86 22 -48 20 -74
16 53 56 -11 7 127 88 47
7 -25 -6 127 44 -9 39 -62
-64 110 33 -17 -11 -63 -9 -10
-13 26 -39 -127 3 10 1 45
23 -24 28 -37 -5 -39 11 27
-9 11 33 -26 72 -31 81 -66
-95 27 3 34 -11 127 -63 -29
70 -23 -94 -19 53 -84 5 5
9 45 -80 -36 -46 127 3 38
-18 7 -24 10 6 -127 0 16
4 -15 12 2 6 -13 10 10
32 -6 78 -19 66 8 -127 -79
-5 -31 38 17 19 -67 -25 -36
-97 41 -11 -61 14 13 127 49
-43 42 95 -43 1 96 67 5

model_1/block_5_project/Conv2D i1 [16, 1, 1, 96]
00000000: eaee ffe8 0bff d600 10fc f600 faf3 e30c
00000010: fdfe fafa 08e7 ff09 0409 fd7f 21e0 26f9
00000020: 0208 070a fe0b e1f7 f70f 061b 0c11 0e0c
00000030: 1c07 fa01 16ed f148 0c06 e9df f815 fde6
00000040: d2bf f424 0304 0af0 f4de faef e214 fd0b
00000050: f6e6 1711 fcf0 f9af 02ef 0702 2de1 e0f3
00000060: 1ca8 a1cd 7ffa 3e29 eb8a c8f0 05ef bb2e
00000070: b5fa 3723 1036 edcb 09fa e7a4 21ee ba24
00000080: e626 f613 15f1 0e08 df34 dfd3 dc6a 0f14
00000090: 1dbb 0fcb f521 3001 d3ed dedc 16ee fcd2
000000a0: 9c7b f9e6 f5db e317 3d91 e00e 20d4 250d
000000b0: 02e3 23fe c521 f427 1cd6 fd13 2212 286b
000000c0: 0749 b7e8 524a 213e fb9e 0cf9 03fb 1d09
000000d0: 07f0 d145 20ef 4c0c 2e17 08e5 22f5 2db6
000000e0: 121f ea1f 81b3 1e1f 00c0 08fe 08e3 ff3f
000000f0: ed10 e5fb 56f9 0146 1408 1100 1419 21ec
-22 -18 -1 -24 11 -1 -42 0
16 -4 -10 0 -6 -13 -29 12
-3 -2 -6 -6 8 -25 -1 9
4 9 -3 127 33 -32 38 -7
2 8 7 10 -2 11 -31 -9
-9 15 6 27 12 17 14 12
28 7 -6 1 22 -19 -15 72
12 6 -23 -33 -8 21 -3 -26
-46 -65 -12 36 3 4 10 -16
-12 -34 -6 -17 -30 20 -3 11
-10 -26 23 17 -4 -16 -7 -81
2 -17 7 2 45 -31 -32 -13
28 -88 -95 -51 127 -6 62 41
-21 -118 -56 -16 5 -17 -69 46
-75 -6 55 35 16 54 -19 -53
9 -6 -25 -92 33 -18 -70 36
-26 38 -10 19 21 -15 14 8
-33 52 -33 -45 -36 106 15 20
29 -69 15 -53 -11 33 48 1
-45 -19 -34 -36 22 -18 -4 -46
-100 123 -7 -26 -11 -37 -29 23
61 -111 -32 14 32 -44 37 13
2 -29 35 -2 -59 33 -12 39
28 -42 -3 19 34 18 40 107
7 73 -73 -24 82 74 33 62
-5 -98 12 -7 3 -5 29 9
7 -16 -47 69 32 -17 76 12
46 23 8 -27 34 -11 45 -74
18 31 -22 31 -127 -77 30 31
0 -64 8 -2 8 -29 -1 63
-19 16 -27 -5 86 -7 1 70
20 8 17 0 20 25 33 -20

model_1/block_5_depthwise_BN/FusedBatchNormV3;model_1/block_5_depthwise/depthwise;model_1/block_6_expand/Conv2D i1 [1, 3, 3, 96]
00000000: d4b9 f57f 1646 4fc7 f3ef f1f9 e401 2402
00000010: f7d3 1b16 1581 7f05 a804 32e4 8281 2718
00000020: 0b1d 3cee e3f5 1dfb f31c 9748 18bb 252e
00000030: ed34 e813 06f9 0f30 a7d0 c6ed f600 0926
00000040: 45e8 4a0e f711 147f 1617 1bff f611 7ff9
00000050: f30f e314 7d15 b2ef 00de f1d9 01e8 f11a
00000060: 7f81 4b6a d57f 298d 4705 ef7f 7f9f f210
00000070: 0b7f 7f8f 7fb0 5244 818b bede c82e c5ee
00000080: a936 81ac d8f2 ca41 007f 7f53 cd8e 90ce
00000090: f081 2b56 45e0 2d53 d22b b390 d5d7 c343
000000a0: 4bc3 1a1f ae20 ef59 767f 0e14 023a de36
000000b0: 417f 7fe9 f74e 8e7f 879a 0581 a581 da69
000000c0: b7f1 1fac 0ee5 42f9 52df e511 eefc f7f4
000000d0: f8ee 08fc ec97 1efe 8461 08ca 7331 f10b
000000e0: 010f 0de2 f922 130e 190d 8b44 11ec 250e
000000f0: f10b f005 f801 fd15 bf07 e234 0329 1fff
-44 -71 -11 127 22 70 79 -57
-13 -17 -15 -7 -28 1 36 2
-9 -45 27 22 21 -127 127 5
-88 4 50 -28 -126 -127 39 24
11 29 60 -18 -29 -11 29 -5
-13 28 -105 72 24 -69 37 46
-19 52 -24 19 6 -7 15 48
-89 -48 -58 -19 -10 0 9 38
69 -24 74 14 -9 17 20 127
22 23 27 -1 -10 17 127 -7
-13 15 -29 20 125 21 -78 -17
0 -34 -15 -39 1 -24 -15 26
127 -127 75 106 -43 127 41 -115
71 5 -17 127 127 -97 -14 16
11 127 127 -113 127 -80 82 68
-127 -117 -66 -34 -56 46 -59 -18
-87 54 -127 -84 -40 -14 -54 65
0 127 127 83 -51 -114 -112 -50
-16 -127 43 86 69 -32 45 83
-46 43 -77 -112 -43 -41 -61 67
75 -61 26 31 -82 32 -17 89
118 127 14 20 2 58 -34 54
65 127 127 -23 -9 78 -114 127
-121 -102 5 -127 -91 -127 -38 105
-73 -15 31 -84 14 -27 66 -7
82 -33 -27 17 -18 -4 -9 -12
-8 -18 8 -4 -20 -105 30 -2
-124 97 8 -54 115 49 -15 11
1 15 13 -30 -7 34 19 14
25 13 -117 68 17 -20 37 14
-15 11 -16 5 -8 1 -3 21
-65 7 -30 52 3 41 31 -1

model_1/block_5_expand/Conv2D i1 [96, 1, 1, 16]
00000000: f453 e749 0a1a 0cf1 1c22 cb74 e7ab 3081
00000010: 1630 02f3 14eb 7fa9 0754 f1e3 0cdc 160a
00000020: 8112 ddeb 0503 1f3f d22b 50ec b302 0fba
00000030: a954 3432 cc37 387f ee34 8931 2494 cac3
00000040: 0bf2 1b42 e445 f833 03ea 05fd 29f8 81f0
00000050: f8db 3ee2 11db f411 b655 db81 ee12 c3f7
00000060: 0605 29ea 2442 b8a9 e8f7 36ea 7fdc f9d5
00000070: 1709 7ff1 dce1 0f04 9e26 b6d0 0df7 38f1
00000080: 2709 463d a778 4547 281d ff98 d405 81ab
00000090: 1d81 3844 03e6 fb18 7b13 32fe eb03 b4e2
000000a0: e29a fbed b10e ec29 637f 24e4 ef2b 4301
000000b0: 36ee fb88 ffcc 9281 c129 eed8 2bea 34cc
000000c0: f804 0de6 d8ea b7ff dfbd e6ff 207f 452b
000000d0: e48b c743 11c4 fbe4 5616 dfea 201f 7f1c
000000e0: 03b7 3d27 1b1b fd7f 1a2b f7dc 211b c671
000000f0: 18e1 0045 1405 6309 0781 0ddf fff1 f4d1
-12 83 -25 73 10 26 12 -15
28 34 -53 116 -25 -85 48 -127
22 48 2 -13 20 -21 127 -87
7 84 -15 -29 12 -36 22 10
-127 18 -35 -21 5 3 31 63
-46 43 80 -20 -77 2 15 -70
-87 84 52 50 -52 55 56 127
-18 52 -119 49 36 -108 -54 -61
11 -14 27 66 -28 69 -8 51
3 -22 5 -3 41 -8 -127 -16
-8 -37 62 -30 17 -37 -12 17
-74 85 -37 -127 -18 18 -61 -9
6 5 41 -22 36 66 -72 -87
-24 -9 54 -22 127 -36 -7 -43
23 9 127 -15 -36 -31 15 4
-98 38 -74 -48 13 -9 56 -15
39 9 70 61 -89 120 69 71
40 29 -1 -104 -44 5 -127 -85
29 -127 56 68 3 -26 -5 24
123 19 50 -2 -21 3 -76 -30
-30 -102 -5 -19 -79 14 -20 41
99 127 36 -28 -17 43 67 1
54 -18 -5 -120 -1 -52 -110 -127
-63 41 -18 -40 43 -22 52 -52
-8 4 13 -26 -40 -22 -73 -1
-33 -67 -26 -1 32 127 69 43
-28 -117 -57 67 17 -60 -5 -28
86 22 -33 -22 32 31 127 28
3 -73 61 39 27 27 -3 127
26 43 -9 -36 33 27 -58 113
24 -31 0 69 20 5 99 9
7 -127 13 -33 -1 -15 -12 -47

model_1/block_4_project/Conv2D i1 [16, 1, 1, 96]
00000000: fb10 f311 2c3e e0e9 27fa 09fe f50f 1b3d
00000010: 00f6 f301 66d1 03f2 ede0 dd9d 06f7 252c
00000020: 6603 ffff 06e7 fb05 d70a 0ce6 fee8 f01e
00000030: ec17 02fa d8fb 0af6 2f13 f4e2 c314 f2f5
00000040: 0913 3802 0c0c faea c300 fb03 01af 04ea
00000050: 26ea c5cb 1d01 0a1d fb06 1bdd 180b 017f
00000060: 3a8f 1759 f4b2 03d1 e2aa f405 0bbd e3c1
00000070: adfb 0a26 eb8f d91a 7fcd c502 f356 ea27
00000080: fc20 c80f e9e9 47e9 f3af 52d9 bf0f 2eff
00000090: 0f10 03c6 3bbb 2de6 2c1a ff8b 22b5 0bc7
000000a0: fab2 1b1f 244d d805 9532 e358 3356 13e5
000000b0: 30ff b917 b558 ff54 df15 1f02 04c9 2200
000000c0: 191d 08ec 0ef5 f31e 3ff4 0d47 fa12 2f09
000000d0: f8ec 0df1 eed0 0dd0 f3eb e528 0417 64d9
000000e0: 1cc8 ec2c 187f d6eb 03f7 fc27 dece d41b
000000f0: 231d e6dc 260a 01ea eb03 0127 0a07 4958
-5 16 -13 17 44 62 -32 -23
39 -6 9 -2 -11 15 27 61
0 -10 -13 1 102 -47 3 -14
-19 -32 -35 -99 6 -9 37 44
102 3 -1 -1 6 -25 -5 5
-41 10 12 -26 -2 -24 -16 30
-20 23 2 -6 -40 -5 10 -10
47 19 -12 -30 -61 20 -14 -11
9 19 56 2 12 12 -6 -22
-61 0 -5 3 1 -81 4 -22
38 -22 -59 -53 29 1 10 29
-5 6 27 -35 24 11 1 127
58 -113 23 89 -12 -78 3 -47
-30 -86 -12 5 11 -67 -29 -63
-83 -5 10 38 -21 -113 -39 26
127 -51 -59 2 -13 86 -22 39
-4 32 -56 15 -23 -23 71 -23
-13 -81 82 -39 -65 15 46 -1
15 16 3 -58 59 -69 45 -26
44 26 -1 -117 34 -75 11 -57
-6 -78 27 31 36 77 -40 5
-107 50 -29 88 51 86 19 -27
48 -1 -71 23 -75 88 -1 84
-33 21 31 2 4 -55 34 0
25 29 8 -20 14 -11 -13 30
63 -12 13 71 -6 18 47 9
-8 -20 13 -15 -18 -48 13 -48
-13 -21 -27 40 4 23 100 -39
28 -56 -20 44 24 127 -42 -21
3 -9 -4 39 -34 -50 -44 27
35 29 -26 -36 38 10 1 -22
-21 3 1 39 10 7 73 88

model_1/block_4_depthwise_BN/FusedBatchNormV3;model_1/block_4_depthwise/depthwise;model_1/block_6_expand/Conv2D i1 [1, 3, 3, 96]
00000000: ee07 ec69 f018 c2cb 10fb 64f6 03f8 fc38
00000010: 0410 dd04 4a02 1fdd 0111 2933 140c 172f
00000020: fa1d 0cf1 0531 c7e6 1308 1b11 acc9 19fb
00000030: f6ec f8f9 3206 f702 fedc 1ae2 1bfe 7f1c
00000040: f3f5 0bcd 4223 03fc 4fe1 4604 1181 1d42
00000050: 020e 7ff2 261e e3ed 23f9 f352 0113 fe0d
00000060: cf0d f80a 34f9 f681 260d 81fc eff4 055d
00000070: 11e2 f2f0 4c9f 7f19 c2e1 99f3 1b23 cf11
00000080: 770d f4fe e87f c281 08ed e10e 3081 7fd4
00000090: b533 3207 27c1 1e39 262a 9e52 7f22 03ec
000000a0: 2bda a100 25e2 ee30 cfd1 6afd e0c3 e041
000000b0: bf3f f208 f530 37d8 e434 f347 81e0 1881
000000c0: 00fd e9b7 0813 2616 fcfe 053d 01f4 f605
000000d0: f211 f011 071a 18df 00e1 0a0f fa06 2eb3
000000e0: 2b11 0be9 0b04 e2ec 0603 f008 17e1 1501
000000f0: 06f8 06fb 0606 fa09 fb2e 07fb 0dee 02ef
-18 7 -20 105 -16 24 -62 -53
16 -5 100 -10 3 -8 -4 56
4 16 -35 4 74 2 31 -35
1 17 41 51 20 12 23 47
-6 29 12 -15 5 49 -57 -26
19 8 27 17 -84 -55 25 -5
-10 -20 -8 -7 50 6 -9 2
-2 -36 26 -30 27 -2 127 28
-13 -11 11 -51 66 35 3 -4
79 -31 70 4 17 -127 29 66
2 14 127 -14 38 30 -29 -19
35 -7 -13 82 1 19 -2 13
-49 13 -8 10 52 -7 -10 -127
38 13 -127 -4 -17 -12 5 93
17 -30 -14 -16 76 -97 127 25
-62 -31 -103 -13 27 35 -49 17
119 13 -12 -2 -24 127 -62 -127
8 -19 -31 14 48 -127 127 -44
-75 51 50 7 39 -63 30 57
38 42 -98 82 127 34 3 -20
43 -38 -95 0 37 -30 -18 48
-49 -47 106 -3 -32 -61 -32 65
-65 63 -14 8 -11 48 55 -40
-28 52 -13 71 -127 -32 24 -127
0 -3 -23 -73 8 19 38 22
-4 -2 5 61 1 -12 -10 5
-14 17 -16 17 7 26 24 -33
0 -31 10 15 -6 6 46 -77
43 17 11 -23 11 4 -30 -20
6 3 -16 8 23 -31 21 1
6 -8 6 -5 6 6 -6 9
-5 46 7 -5 13 -18 2 -17

model_1/block_4_expand/Conv2D i1 [96, 1, 1, 16]
00000000: 4fea 7d7f 4bd6 23df 76fd b3a8 1d5f d2b2
00000010: 355a d5fd 65f9 0e25 365b e47f 0fea 64a0
00000020: 1ccc 0108 e429 c943 c5ab fa49 ff81 40a3
00000030: 736a f626 81fa d2f2 020d 65bf d258 dbe6
00000040: 0bf8 1109 e917 ee27 c9dd eff4 0081 1d03
00000050: 7fda cffc f785 e310 f7ff 8bf7 28f5 ef22
00000060: a7c5 ea59 b714 f12d 81cb c1dd 1940 ea5a
00000070: e407 ad35 2881 ed33 11e3 11fc fb13 d00f
00000080: 1fd0 edf7 0617 c8c6 f013 b0fc 81f5 fd1f
00000090: 1dc2 3a7a 0d0e febb 7fa5 0bdd fe42 ad29
000000a0: 81a9 f8cd 5b27 2d47 5fba bd1e 46a4 874c
000000b0: 20f4 810b 2911 ea24 f0d8 f3f8 0413 ce00
000000c0: 68c7 02fe fcc1 b1dc 21fd 81ff d0e6 0d43
000000d0: 1ea7 f8bf 6d22 a881 328f 1e17 3af8 1d02
000000e0: bf25 8bbd 4181 4fd0 2225 0993 0d6e e92c
000000f0: 1dfe 3423 2acb e5f9 0dc9 bef5 81cf ed3a
79 -22 125 127 75 -42 35 -33
118 -3 -77 -88 29 95 -46 -78
53 90 -43 -3 101 -7 14 37
54 91 -28 127 15 -22 100 -96
28 -52 1 8 -28 41 -55 67
-59 -85 -6 73 -1 -127 64 -93
115 106 -10 38 -127 -6 -46 -14
2 13 101 -65 -46 88 -37 -26
11 -8 17 9 -23 23 -18 39
-55 -35 -17 -12 0 -127 29 3
127 -38 -49 -4 -9 -123 -29 16
-9 -1 -117 -9 40 -11 -17 34
-89 -59 -22 89 -73 20 -15 45
-127 -53 -63 -35 25 64 -22 90
-28 7 -83 53 40 -127 -19 51
17 -29 17 -4 -5 19 -48 15
31 -48 -19 -9 6 23 -56 -58
-16 19 -80 -4 -127 -11 -3 31
29 -62 58 122 13 14 -2 -69
127 -91 11 -35 -2 66 -83 41
-127 -87 -8 -51 91 39 45 71
95 -70 -67 30 70 -92 -121 76
32 -12 -127 11 41 17 -22 36
-16 -40 -13 -8 4 19 -50 0
104 -57 2 -2 -4 -63 -79 -36
33 -3 -127 -1 -48 -26 13 67
30 -89 -8 -65 109 34 -88 -127
50 -113 30 23 58 -8 29 2
-65 37 -117 -67 65 -127 79 -48
34 37 9 -109 13 110 -23 44
29 -2 52 35 42 -53 -27 -7
13 -55 -66 -11 -127 -49 -19 58

model_1/block_3_project/Conv2D i1 [16, 1, 1, 48]
00000000: f2ff ef0c 14fa 0466 d20a 1efb 0fec f00f
00000010: 10f1 fafd 3bfc 167f f157 ffef 16f1 19eb
00000020: e831 16d4 102a 0ef8 9fe1 1626 201a 87d0
00000030: d8ee 0e13 e00c 023a cdda 09d9 ebea 0101
00000040: e679 fa16 0c08 e6f0 1cda 0c16 eca7 dd17
00000050: edf9 2001 fbd3 0211 ece0 7f08 0700 1af2
00000060: ecf9 f7d9 febd 03ea fd0f 1118 110d ee08
00000070: feee e4f3 f902 ff81 f049 f508 00eb fdf8
00000080: fa39 08f9 140b 1a04 dc06 f0fb fff3 0c08
00000090: f721 06e4 fe01 04fe eefd fd26 8106 fafd
000000a0: 0302 ef02 e20b 0512 fcf6 0519 f510 020f
000000b0: 0402 1112 f915 2808 0d07 15e2 07fa 020f
000000c0: 22df 0d0c 141c 1ceb df01 f1e7 0009 ff11
000000d0: 18f7 ae0a f811 0d4f 08e3 0631 02b1 1107
000000e0: 0dde 2181 0e20 0118 f313 0be8 f1ee 0904
000000f0: 1d05 ec38 fdf9 071b 00fb 2506 ff35 ff00
-14 -1 -17 12 20 -6 4 102
-46 10 30 -5 15 -20 -16 15
16 -15 -6 -3 59 -4 22 127
-15 87 -1 -17 22 -15 25 -21
-24 49 22 -44 16 42 14 -8
-97 -31 22 38 32 26 -121 -48
-40 -18 14 19 -32 12 2 58
-51 -38 9 -39 -21 -22 1 1
-26 121 -6 22 12 8 -26 -16
28 -38 12 22 -20 -89 -35 23
-19 -7 32 1 -5 -45 2 17
-20 -32 127 8 7 0 26 -14
-20 -7 -9 -39 -2 -67 3 -22
-3 15 17 24 17 13 -18 8
-2 -18 -28 -13 -7 2 -1 -127
-16 73 -11 8 0 -21 -3 -8
-6 57 8 -7 20 11 26 4
-36 6 -16 -5 -1 -13 12 8
-9 33 6 -28 -2 1 4 -2
-18 -3 -3 38 -127 6 -6 -3
3 2 -17 2 -30 11 5 18
-4 -10 5 25 -11 16 2 15
4 2 17 18 -7 21 40 8
13 7 21 -30 7 -6 2 15
34 -33 13 12 20 28 28 -21
-33 1 -15 -25 0 9 -1 17
24 -9 -82 10 -8 17 13 79
8 -29 6 49 2 -79 17 7
13 -34 33 -127 14 32 1 24
-13 19 11 -24 -15 -18 9 4
29 5 -20 56 -3 -7 7 27
0 -5 37 6 -1 53 -1 0

model_1/block_3_depthwise_BN/FusedBatchNormV3;model_1/block_3_depthwise/depthwise i1 [1, 3, 3, 48]
00000000: 45a2 6048 35dd 6bc0 3ca8 b02f 34d6 b7a6
00000010: 644e 314d 42b6 ae33 e0d8 c1c1 bd3d c28e
00000020: f42a 4540 bf35 cde9 32b6 3a3d a10b 4cdf
00000030: 529f 7f56 b3bb c8ac 6199 c24a 4f94 a05b
00000040: d95f 537f 558d 3547 ccb1 bcb1 384f e281
00000050: aa50 5153 af52 aeef 4ca2 5359 b781 5d9b
00000060: 23d3 4726 12d7 d1d9 2ae0 0522 1eb0 c9fe
00000070: c924 2346 22ca 2019 e5d3 d4e9 1f1e 57a7
00000080: ab2d 2421 e227 daf5 29d8 232a f9f7 25b8
00000090: 5b91 d55e 37ae 7fa7 578f b952 5491 f381
000000a0: 7f6b 4bd9 536b 8149 49b4 a49e 8155 bbf7
000000b0: aa47 6b60 aa4e af59 549b 585b a76a 5ea7
000000c0: 7f81 bf7f 8181 a681 7f81 817f 7f81 ea60
000000d0: bf7f 7fcd 7f7f 457f 7f81 8181 367f e410
000000e0: 817f 7f7f 817f 817f 7f81 7f7f 81f5 7f81
000000f0: 40b2 df43 26c2 cfc2 38d5 c439 31c9 f00a
69 -94 96 72 53 -35 107 -64
60 -88 -80 47 52 -42 -73 -90
100 78 49 77 66 -74 -82 51
-32 -40 -63 -63 -67 61 -62 -114
-12 42 69 64 -65 53 -51 -23
50 -74 58 61 -95 11 76 -33
82 -97 127 86 -77 -69 -56 -84
97 -103 -62 74 79 -108 -96 91
-39 95 83 127 85 -115 53 71
-52 -79 -68 -79 56 79 -30 -127
-86 80 81 83 -81 82 -82 -17
76 -94 83 89 -73 -127 93 -101
35 -45 71 38 18 -41 -47 -39
42 -32 5 34 30 -80 -55 -2
-55 36 35 70 34 -54 32 25
-27 -45 -44 -23 31 30 87 -89
-85 45 36 33 -30 39 -38 -11
41 -40 35 42 -7 -9 37 -72
91 -111 -43 94 55 -82 127 -89
87 -113 -71 82 84 -111 -13 -127
127 107 75 -39 83 107 -127 73
73 -76 -92 -98 -127 85 -69 -9
-86 71 107 96 -86 78 -81 89
84 -101 88 91 -89 106 94 -89
127 -127 -65 127 -127 -127 -90 -127
127 -127 -127 127 127 -127 -22 96
-65 127 127 -51 127 127 69 127
127 -127 -127 -127 54 127 -28 16
-127 127 127 127 -127 127 -127 127
127 -127 127 127 -127 -11 127 -127
64 -78 -33 67 38 -62 -49 -62
56 -43 -60 57 49 -55 -16 10

model_1/block_3_expand/Conv2D i1 [48, 1, 1, 8]
00000000: 8102 fd44 e028 13e0 1949 360f 10da 727f
00000010: ddfe 0100 81f4 0b05 61fa ed81 8613 25f0
00000020: 8134 f8f6 4df2 270c 93e4 1ef7 8113 0555
00000030: ee81 1cf2 0b05 ff20 c302 085d 7fde e304
00000040: 40ff ff81 01ea d7e3 fe81 fa03 fd56 c74c
00000050: 9efa fa17 8147 43f3 700b 2b0c c7d3 da81
00000060: ff0f 2cf9 0bae 7f37 45e1 fcf9 7a77 7fda
00000070: 7f26 f01e a1e6 f206 f281 0df2 060a 0320
00000080: cef1 03fd 81fe 1104 ec5d 9402 0981 5fa9
00000090: 7fe5 d309 cc14 015d 7fc1 e4f5 360d 1cff
000000a0: 7f15 ed6e 0123 ffc8 0d22 c30c e153 81ac
000000b0: 810e 17fe dc0b d1ed dbc3 f913 813b 53f7
000000c0: 7f01 fffb abf4 fe05 1eed f9e9 7f34 3ce2
000000d0: 06a9 00de 0281 50cd ed81 1bf3 fdc7 1ef7
000000e0: a034 e70b f1e2 7f56 ef2e 100a 032d 9681
000000f0: 7fe9 000b b200 d1e9 f7db 36f2 148e 7f52
-127 2 -3 68 -32 40 19 -32
25 73 54 15 16 -38 114 127
-35 -2 1 0 -127 -12 11 5
97 -6 -19 -127 -122 19 37 -16
-127 52 -8 -10 77 -14 39 12
-109 -28 30 -9 -127 19 5 85
-18 -127 28 -14 11 5 -1 32
-61 2 8 93 127 -34 -29 4
64 -1 -1 -127 1 -22 -41 -29
-2 -127 -6 3 -3 86 -57 76
-98 -6 -6 23 -127 71 67 -13
112 11 43 12 -57 -45 -38 -127
-1 15 44 -7 11 -82 127 55
69 -31 -4 -7 122 119 127 -38
127 38 -16 30 -95 -26 -14 6
-14 -127 13 -14 6 10 3 32
-50 -15 3 -3 -127 -2 17 4
-20 93 -108 2 9 -127 95 -87
127 -27 -45 9 -52 20 1 93
127 -63 -28 -11 54 13 28 -1
127 21 -19 110 1 35 -1 -56
13 34 -61 12 -31 83 -127 -84
-127 14 23 -2 -36 11 -47 -19
-37 -61 -7 19 -127 59 83 -9
127 1 -1 -5 -85 -12 -2 5
30 -19 -7 -23 127 52 60 -30
6 -87 0 -34 2 -127 80 -51
-19 -127 27 -13 -3 -57 30 -9
-96 52 -25 11 -15 -30 127 86
-17 46 16 10 3 45 -106 -127
127 -23 0 11 -78 0 -47 -23
-9 -37 54 -14 20 -114 127 82

model_1/block_2_project/Conv2D i1 [8, 1, 1, 48]
00000000: c4f6 e217 09e6 0701 9477 d86f 7f00 49f5
00000010: fede 07fc fcef edd9 16a0 0f3a f70e 1bdb
00000020: 04b2 6814 f3fd f3f3 7af8 36e6 dd21 edec
00000030: fb23 7f03 fde4 03aa 1b02 1104 e908 fc8a
00000040: 0ac5 0bfe e521 16e4 eff9 0600 0af8 08ff
00000050: f50a 0f0f eedf 41c2 0c29 f817 ec08 18fa
00000060: 07cc 0dd3 201b fbe3 08fd fc10 f03c 0903
00000070: da7f e6e2 ef1a d6f9 7b00 fefb e0f7 01d9
00000080: f7f4 fe08 fbfc f308 0eea ecfe 061b e6da
00000090: ffa5 fb09 00f6 f2fc f4f5 0e13 0df2 2f03
000000a0: f4ea 0515 f812 e405 0136 0407 f705 7ffd
000000b0: 0c04 fb00 e8f0 f30d f507 f619 f5ff fb1d
000000c0: 9f09 07fe fde0 fd0a 26db 15ea deff f1f8
000000d0: fb05 fc1f 0ae9 0a01 f730 026b 02ff f5e2
000000e0: ff81 df0d 01fe 0001 cc04 f112 c800 0407
000000f0: eb1c 0d07 d509 ff2d 1cfe 0e09 ffd2 052c
-60 -10 -30 23 9 -26 7 1
-108 119 -40 111 127 0 73 -11
-2 -34 7 -4 -4 -17 -19 -39
22 -96 15 58 -9 14 27 -37
4 -78 104 20 -13 -3 -13 -13
122 -8 54 -26 -35 33 -19 -20
-5 35 127 3 -3 -28 3 -86
27 2 17 4 -23 8 -4 -118
10 -59 11 -2 -27 33 22 -28
-17 -7 6 0 10 -8 8 -1
-11 10 15 15 -18 -33 65 -62
12 41 -8 23 -20 8 24 -6
7 -52 13 -45 32 27 -5 -29
8 -3 -4 16 -16 60 9 3
-38 127 -26 -30 -17 26 -42 -7
123 0 -2 -5 -32 -9 1 -39
-9 -12 -2 8 -5 -4 -13 8
14 -22 -20 -2 6 27 -26 -38
-1 -91 -5 9 0 -10 -14 -4
-12 -11 14 19 13 -14 47 3
-12 -22 5 21 -8 18 -28 5
1 54 4 7 -9 5 127 -3
12 4 -5 0 -24 -16 -13 13
-11 7 -10 25 -11 -1 -5 29
-97 9 7 -2 -3 -32 -3 10
38 -37 21 -22 -34 -1 -15 -8
-5 5 -4 31 10 -23 10 1
-9 48 2 107 2 -1 -11 -30
-1 -127 -33 13 1 -2 0 1
-52 4 -15 18 -56 0 4 7
-21 28 13 7 -43 9 -1 45
28 -2 14 9 -1 -46 5 44

model_1/block_2_depthwise_BN/FusedBatchNormV3;model_1/block_2_depthwise/depthwise;model_1/block_3_depthwise/depthwise i1 [1, 3, 3, 48]
00000000: 04fd 146e 044f fe1c 0e08 0a07 faf7 d209
00000010: fe09 ea8f f9ea 7ff7 fe05 fb09 fb05 0f63
00000020: 141d 26e5 0121 fe02 12bd f9f7 1202 faf6
00000030: 7f0a 0f81 1c55 0a0a 7a7f 072b d0e8 0508
00000040: 7fc8 c5c7 9a19 940f 1145 e0ac 1715 0983
00000050: 05c3 7f0b d8d1 f974 b19d e303 dff8 8117
00000060: dffe 070f 003f 0411 1b08 f11f f4fd 0f03
00000070: 991d fd4d e0f4 effa fcc4 fd1d ef05 04e9
00000080: 08e8 10ee 002f 29f4 3224 f20b d603 fffa
00000090: 7e07 019e 0de5 22f0 0808 f435 faff 11df
000000a0: 00cf c5ac 0ab6 85ee 0561 f181 f821 0b94
000000b0: 11cb fd7f fd3a d729 c181 28a8 d4f3 f4fc
000000c0: 1a81 8174 8181 8181 819f 7f81 7f7f 2281
000000d0: ad7f 7f95 7f7f 707f 7f81 811c 8181 5e7f
000000e0: 817f e2d8 7f81 7f7f 7faf 7f7f 7f88 676b
000000f0: 3506 30f3 05c3 2c12 e70e 96f8 01d7 7f04
4 -3 20 110 4 79 -2 28
14 8 10 7 -6 -9 -46 9
-2 9 -22 -113 -7 -22 127 -9
-2 5 -5 9 -5 5 15 99
20 29 38 -27 1 33 -2 2
18 -67 -7 -9 18 2 -6 -10
127 10 15 -127 28 85 10 10
122 127 7 43 -48 -24 5 8
127 -56 -59 -57 -102 25 -108 15
17 69 -32 -84 23 21 9 -125
5 -61 127 11 -40 -47 -7 116
-79 -99 -29 3 -33 -8 -127 23
-33 -2 7 15 0 63 4 17
27 8 -15 31 -12 -3 15 3
-103 29 -3 77 -32 -12 -17 -6
-4 -60 -3 29 -17 5 4 -23
8 -24 16 -18 0 47 41 -12
50 36 -14 11 -42 3 -1 -6
126 7 1 -98 13 -27 34 -16
8 8 -12 53 -6 -1 17 -33
0 -49 -59 -84 10 -74 -123 -18
5 97 -15 -127 -8 33 11 -108
17 -53 -3 127 -3 58 -41 41
-63 -127 40 -88 -44 -13 -12 -4
26 -127 -127 116 -127 -127 -127 -127
-127 -97 127 -127 127 127 34 -127
-83 127 127 -107 127 127 112 127
127 -127 -127 28 -127 -127 94 127
-127 127 -30 -40 127 -127 127 127
127 -81 127 127 127 -120 103 107
53 6 48 -13 5 -61 44 18
-25 14 -106 -8 1 -41 127 4

model_1/block_2_expand/Conv2D i1 [48, 1, 1, 8]
00000000: 5324 f6f6 7f23 d3e8 f9fc 017f 0cf7 0212
00000010: 2081 ee37 f3bb 6307 7fe9 fe0e f4e3 1803
00000020: 10c9 7fec f5d2 0e9e 43fd 0403 7f0e 0202
00000030: eb5b f17f 1b2a bdd2 fa7f fb01 02fb 08f6
00000040: 7f36 fb0a cae8 04d6 81ff 0810 2711 f90b
00000050: b5f4 127f 241a f1f9 8101 0db8 2405 ead2
00000060: 7f13 0d0e d3ec fdde ec58 81fc fe79 a94a
00000070: d4e8 f77f 1300 06f1 fd7f 01fa fff0 0acb
00000080: eb81 ee07 f682 71e3 117f 03f6 0758 aae6
00000090: f634 8101 0632 dd3d c10a 0404 81fa 1822
000000a0: 81e6 fafa 5de7 3603 c201 f8ff 81f8 1208
000000b0: 81e9 f8f6 52f9 1a27 efec f8f9 fb4f 81a5
000000c0: f829 8103 0633 ed49 4ee2 087f c0ef 0ade
000000d0: 09e8 f904 f17f 7ee3 4feb f70b 7f24 32f3
000000e0: 047f b80f fd4a e178 f80b fafb fb57 81ad
000000f0: 04fe 0481 fdff faf0 bc04 0808 8103 0d07
83 36 -10 -10 127 35 -45 -24
-7 -4 1 127 12 -9 2 18
32 -127 -18 55 -13 -69 99 7
127 -23 -2 14 -12 -29 24 3
16 -55 127 -20 -11 -46 14 -98
67 -3 4 3 127 14 2 2
-21 91 -15 127 27 42 -67 -46
-6 127 -5 1 2 -5 8 -10
127 54 -5 10 -54 -24 4 -42
-127 -1 8 16 39 17 -7 11
-75 -12 18 127 36 26 -15 -7
-127 1 13 -72 36 5 -22 -46
127 19 13 14 -45 -20 -3 -34
-20 88 -127 -4 -2 121 -87 74
-44 -24 -9 127 19 0 6 -15
-3 127 1 -6 -1 -16 10 -53
-21 -127 -18 7 -10 -126 113 -29
17 127 3 -10 7 88 -86 -26
-10 52 -127 1 6 50 -35 61
-63 10 4 4 -127 -6 24 34
-127 -26 -6 -6 93 -25 54 3
-62 1 -8 -1 -127 -8 18 8
-127 -23 -8 -10 82 -7 26 39
-17 -20 -8 -7 -5 79 -127 -91
-8 41 -127 3 6 51 -19 73
78 -30 8 127 -64 -17 10 -34
9 -24 -7 4 -15 127 126 -29
79 -21 -9 11 127 36 50 -13
4 127 -72 15 -3 74 -31 120
-8 11 -6 -5 -5 87 -127 -83
4 -2 4 -127 -3 -1 -6 -16
-68 4 8 8 -127 3 13 7

model_1/block_1_project/Conv2D i1 [8, 1, 1, 48]
00000000: f3ff 0aa8 0a19 0604 0301 05f7 5f00 ff08
00000010: 00f2 fa02 4af6 0202 1c26 0e0f 0104 0681
00000020: 0904 01fc e1fc f420 08e5 fa03 04fd 0403
00000030: ddfb fefb 2916 e64b 1408 e0ea 0a00 1323
00000040: 002b 11ce fe14 7f16 e300 3c05 12fc 0df3
00000050: 11fb f5ee 0ccb 0c03 f5f7 adf9 df09 cf9e
00000060: c60e ff09 2cf8 2119 f333 0aff 0500 0533
00000070: 0008 8119 0311 03f2 e0fe 2202 0a21 1906
00000080: 08f6 f8f5 0a0b ff04 27fa e502 19ca 1b11
00000090: 0400 fd0a fe1e ff00 430f fbfc 1700 e4f8
000000a0: 00fe f5ff fafe 06f3 f5f8 f8fb f9fc fef7
000000b0: cc2c c9fd 0500 0381 0005 fcd1 fd00 fd04
000000c0: 01fe 5725 04ec fefd 02ff fcff ac00 f403
000000d0: 000e 05fe 4108 00f8 ef1c f931 f900 fe65
000000e0: 0501 00fc 12f5 f0f0 fc81 0100 fffe fffe
000000f0: f92c 02f4 042f 1e0c ef19 053a 1c00 81fe
-13 -1 10 -88 10 25 6 4
3 1 5 -9 95 0 -1 8
0 -14 -6 2 74 -10 2 2
28 38 14 15 1 4 6 -127
9 4 1 -4 -31 -4 -12 32
8 -27 -6 3 4 -3 4 3
-35 -5 -2 -5 41 22 -26 75
20 8 -32 -22 10 0 19 35
0 43 17 -50 -2 20 127 22
-29 0 60 5 18 -4 13 -13
17 -5 -11 -18 12 -53 12 3
-11 -9 -83 -7 -33 9 -49 -98
-58 14 -1 9 44 -8 33 25
-13 51 10 -1 5 0 5 51
0 8 -127 25 3 17 3 -14
-32 -2 34 2 10 33 25 6
8 -10 -8 -11 10 11 -1 4
39 -6 -27 2 25 -54 27 17
4 0 -3 10 -2 30 -1 0
67 15 -5 -4 23 0 -28 -8
0 -2 -11 -1 -6 -2 6 -13
-11 -8 -8 -5 -7 -4 -2 -9
-52 44 -55 -3 5 0 3 -127
0 5 -4 -47 -3 0 -3 4
1 -2 87 37 4 -20 -2 -3
2 -1 -4 -1 -84 0 -12 3
0 14 5 -2 65 8 0 -8
-17 28 -7 49 -7 0 -2 101
5 1 0 -4 18 -11 -16 -16
-4 -127 1 0 -1 -2 -1 -2
-7 44 2 -12 4 47 30 12
-17 25 5 58 28 0 -127 -2

model_1/block_1_depthwise_BN/FusedBatchNormV3;model_1/block_1_depthwise/depthwise;model_1/block_3_depthwise/depthwise i1 [1, 3, 3, 48]
00000000: d6ea f9ef 07d9 b1bd e5ce 0942 22b9 73d5
00000010: 8fac 24fa ffb6 91b0 dd85 c0e9 470f 5f1b
00000020: 81a7 f935 1231 814e b4f3 6994 fddd a96b
00000030: 4b0d e4e3 3981 81af 3db4 8d6c 25ae ff3e
00000040: cc90 3b07 0b8e 81ba fc81 87d7 c915 c736
00000050: 1d81 4054 0e49 a47f 8107 7b81 01ea 815f
00000060: e02c 06fb be94 c6ee 56fa 8127 09b9 9cf5
00000070: 81e8 1a0c f1b4 dce9 f5e2 c5f3 f612 e709
00000080: 6baa 461f 0e24 fc0f b103 06b2 ef06 c90f
00000090: ab81 d4d5 f636 6297 e595 ed71 5ac0 1b9f
000000a0: 87a1 5ab4 29a6 9a81 2a8e b2d9 7fc4 7f55
000000b0: d4ad f155 deb4 9659 2a3b 6894 a489 5177
000000c0: 7fae 8181 7f28 5c81 6581 937f 7ff2 fa7f
000000d0: c481 7f81 7f81 8888 7fa0 8181 8881 b97f
000000e0: 1d90 7f7f bd81 a15a 3d7f 7f8c 8f81 7d7f
000000f0: cc20 c2ac 87e9 1eda 7fed b524 38ba e7d4
-42 -22 -7 -17 7 -39 -79 -67
-27 -50 9 66 34 -71 115 -43
-113 -84 36 -6 -1 -74 -111 -80
-35 -123 -64 -23 71 15 95 27
-127 -89 -7 53 18 49 -127 78
-76 -13 105 -108 -3 -35 -87 107
75 13 -28 -29 57 -127 -127 -81
61 -76 -115 108 37 -82 -1 62
-52 -112 59 7 11 -114 -127 -70
-4 -127 -121 -41 -55 21 -57 54
29 -127 64 84 14 73 -92 127
-127 7 123 -127 1 -22 -127 95
-32 44 6 -5 -66 -108 -58 -18
86 -6 -127 39 9 -71 -100 -11
-127 -24 26 12 -15 -76 -36 -23
-11 -30 -59 -13 -10 18 -25 9
107 -86 70 31 14 36 -4 15
-79 3 6 -78 -17 6 -55 15
-85 -127 -44 -43 -10 54 98 -105
-27 -107 -19 113 90 -64 27 -97
-121 -95 90 -76 41 -90 -102 -127
42 -114 -78 -39 127 -60 127 85
-44 -83 -15 85 -34 -76 -106 89
42 59 104 -108 -92 -119 81 119
127 -82 -127 -127 127 40 92 -127
101 -127 -109 127 127 -14 -6 127
-60 -127 127 -127 127 -127 -120 -120
127 -96 -127 -127 -120 -127 -71 127
29 -112 127 127 -67 -127 -95 90
61 127 127 -116 -113 -127 125 127
-52 32 -62 -84 -121 -23 30 -38
127 -19 -75 36 56 -70 -25 -44

model_1/block_1_expand/Conv2D i1 [48, 1, 1, 8]
00000000: 1181 31ce 1dee ca19 4a49 e996 14f8 a77f
00000010: 200a d97e 347f 2c5e 544a b57f 9ff2 f413
00000020: df97 420d 071e d581 15ff da27 07dc 257f
00000030: 39f2 81b0 7105 3ae4 7f13 18e6 1ff7 59c2
00000040: 0ea1 0e5f 091a f581 5f81 0af8 f508 8e53
00000050: 81d3 9013 0009 9733 ecdd f6a1 81e2 2ef0
00000060: 0d0d e049 b2e6 3b7f 0000 0000 0000 0000
00000070: fae1 fe0b 2a7f 2f27 2fff 0f81 4a27 cc51
00000080: 0000 0000 0000 0000 0b15 7f12 e4f4 201e
00000090: 5081 1522 f913 92fc 81ec 1c41 d1c2 a23a
000000a0: 2021 dd71 ea81 fc3d 3411 7f08 f4f7 3e08
000000b0: b6f4 8107 020e 9c0a 9b7b f2e6 0cf0 7fb1
000000c0: 04c9 cf59 f6bf 607f 0632 2221 6d7f c2cf
000000d0: a8e0 81ff 0b0e a6fb 03e9 e60a cf7f 4133
000000e0: 06ee ef29 197f 2f38 531b 7ffd edf0 52f7
000000f0: ae7f e7e8 03fa 66cc d2a6 e503 1bb3 7f67
17 -127 49 -50 29 -18 -54 25
74 73 -23 -106 20 -8 -89 127
32 10 -39 126 52 127 44 94
84 74 -75 127 -97 -14 -12 19
-33 -105 66 13 7 30 -43 -127
21 -1 -38 39 7 -36 37 127
57 -14 -127 -80 113 5 58 -28
127 19 24 -26 31 -9 89 -62
14 -95 14 95 9 26 -11 -127
95 -127 10 -8 -11 8 -114 83
-127 -45 -112 19 0 9 -105 51
-20 -35 -10 -95 -127 -30 46 -16
13 13 -32 73 -78 -26 59 127
0 0 0 0 0 0 0 0
-6 -31 -2 11 42 127 47 39
47 -1 15 -127 74 39 -52 81
0 0 0 0 0 0 0 0
11 21 127 18 -28 -12 32 30
80 -127 21 34 -7 19 -110 -4
-127 -20 28 65 -47 -62 -94 58
32 33 -35 113 -22 -127 -4 61
52 17 127 8 -12 -9 62 8
-74 -12 -127 7 2 14 -100 10
-101 123 -14 -26 12 -16 127 -79
4 -55 -49 89 -10 -65 96 127
6 50 34 33 109 127 -62 -49
-88 -32 -127 -1 11 14 -90 -5
3 -23 -26 10 -49 127 65 51
6 -18 -17 41 25 127 47 56
83 27 127 -3 -19 -16 82 -9
-82 127 -25 -24 3 -6 102 -52
-46 -90 -27 3 27 -77 127 103

model_1/expanded_conv_project/Conv2D i1 [8, 1, 1, 16]
00000000: 00e9 0301 7e01 fd01 ff81 a4fc 007d fd00
00000010: 00e6 0359 460c 1704 01f9 7fd2 0020 f200
00000020: 0000 fdf5 c005 0801 ffff ee02 007f f700
00000030: 00f7 ee81 4e16 4615 0140 0024 0003 1000
00000040: 0038 e524 c11f 7f04 01be 14f5 00f9 1000
00000050: 00f1 f600 eae9 f111 010b fcd5 00fc 7f00
00000060: 0011 ff00 30ec e5f8 ff98 723c 007f 3800
00000070: 000e f17f 09fe 120a 0149 cb4c 00fc 2d00
0 -23 3 1 126 1 -3 1
-1 -127 -92 -4 0 125 -3 0
0 -26 3 89 70 12 23 4
1 -7 127 -46 0 32 -14 0
0 0 -3 -11 -64 5 8 1
-1 -1 -18 2 0 127 -9 0
0 -9 -18 -127 78 22 70 21
1 64 0 36 0 3 16 0
0 56 -27 36 -63 31 127 4
1 -66 20 -11 0 -7 16 0
0 -15 -10 0 -22 -23 -15 17
1 11 -4 -43 0 -4 127 0
0 17 -1 0 48 -20 -27 -8
-1 -104 114 60 0 127 56 0
0 14 -15 127 9 -2 18 10
1 73 -53 76 0 -4 45 0

model_1/expanded_conv_depthwise_BN/FusedBatchNormV3;model_1/expanded_conv_depthwise/depthwise;model_1/block_5_project/Conv2D i1 [1, 3, 3, 16]
00000000: 9412 ae82 27bd 50b5 a6fd f81e 8104 36b7
00000010: 3319 817f 7f81 7f81 ac7f 8134 9705 7fe7
00000020: 18e7 5bfe b843 a14e a1e4 04f0 3d01 9ae3
00000030: 817f ea0d d410 e30f e400 0392 cf08 e2f2
00000040: b2d6 c7f1 f8e6 08e5 94a7 15f4 9881 0117
00000050: 0e01 4102 0322 e622 8106 fe01 eb0c fc2b
00000060: 8db7 4602 fa27 d935 b400 0005 2802 e517
00000070: 17fc 20fe e528 de16 83f3 0055 c600 e391
00000080: 15f9 1400 040e 0917 8d04 ff81 6b03 1181
-108 18 -82 -126 39 -67 80 -75
-90 -3 -8 30 -127 4 54 -73
51 25 -127 127 127 -127 127 -127
-84 127 -127 52 -105 5 127 -25
24 -25 91 -2 -72 67 -95 78
-95 -28 4 -16 61 1 -102 -29
-127 127 -22 13 -44 16 -29 15
-28 0 3 -110 -49 8 -30 -14
-78 -42 -57 -15 -8 -26 8 -27
-108 -89 21 -12 -104 -127 1 23
14 1 65 2 3 34 -26 34
-127 6 -2 1 -21 12 -4 43
-115 -73 70 2 -6 39 -39 53
-76 0 0 5 40 2 -27 23
23 -4 32 -2 -27 40 -34 22
-125 -13 0 85 -58 0 -29 -111
21 -7 20 0 4 14 9 23
-115 4 -1 -127 107 3 17 -127

model_1/Conv1/Conv2D i1 [16, 3, 3, 3]
00000000: 0000 0000 0000 0000 0000 0000 0000 0000
00000010: 0000 0000 0000 0000 0000 0029 fb1a f8ea
00000020: 0d81 91c2 02fd ffeb 05fc fce4 06fe 1300
00000030: fc08 ff21 ef0c 22f6 f656 73fe 2bd5 040c
00000040: 08fb 4c7f e01a f8f6 33b7 104b d0e7 24c6
00000050: 0d09 2408 2461 1803 07fe 1726 0b44 7f1c
00000060: f6ef 0604 0106 1a1a 0a02 fd05 2750 090e
00000070: 5706 ee0d 0b2b 5d3f 1f7f 2e1a 3900 2b3b
00000080: 2022 6d13 df15 1b0b 0587 ff03 9afb 1de6
00000090: 07d8 8101 d58c ff0b e700 0bef 04ff f501
000000a0: 0cf4 19bf 2331 a82a 0aed 0a26 9f40 4481
000000b0: 4d08 e513 14dd 0f0f d51d f308 00da 1308
000000c0: 85dd 08e2 1b06 f1fc 0681 aa04 f9ff 0ce5
000000d0: 21fa f20f 04e9 1c00 9f7f 779f 7d76 9e7d
000000e0: 76a0 7e76 9d7b 759e 7c75 9e7c 769e 7b75
000000f0: 9e7d 75e9 010c f3ff 0402 07f9 5d75 f946
0 0 0 0 0 0 0 0
0 0 0 0 0 0 0 0
0 0 0 0 0 0 0 0
0 0 0 41 -5 26 -8 -22
13 -127 -111 -62 2 -3 -1 -21
5 -4 -4 -28 6 -2 19 0
-4 8 -1 33 -17 12 34 -10
-10 86 115 -2 43 -43 4 12
8 -5 76 127 -32 26 -8 -10
51 -73 16 75 -48 -25 36 -58
13 9 36 8 36 97 24 3
7 -2 23 38 11 68 127 28
-10 -17 6 4 1 6 26 26
10 2 -3 5 39 80 9 14
87 6 -18 13 11 43 93 63
31 127 46 26 57 0 43 59
32 34 109 19 -33 21 27 11
5 -121 -1 3 -102 -5 29 -26
7 -40 -127 1 -43 -116 -1 11
-25 0 11 -17 4 -1 -11 1
12 -12 25 -65 35 49 -88 42
10 -19 10 38 -97 64 68 -127
77 8 -27 19 20 -35 15 15
-43 29 -13 8 0 -38 19 8
-123 -35 8 -30 27 6 -15 -4
6 -127 -86 4 -7 -1 12 -27
33 -6 -14 15 4 -23 28 0
-97 127 119 -97 125 118 -98 125
118 -96 126 118 -99 123 117 -98
124 117 -98 124 118 -98 123 117
-98 125 117 -23 1 12 -13 -1
4 2 7 -7 93 117 -7 70
